backend/ml/siamese_lstm_behavior.pt (torch, 93565 bytes, 6 tensors)

lstm.weight_ih_l0 f4 [256, 6]
000000 61 fb ea bd 95 6a 1f 3d 74 94 ea bc b8 d0 bb bc
       -0.11473728 0.038920004 -0.028635241 -0.022926673
000010 6a 55 c0 bd fe e3 d3 bd 39 27 11 3d a8 43 70 3d
       -0.093912914 -0.103462204 0.035437796 0.058658272
000020 2f 88 d5 bd 99 06 62 3d 45 cb 17 3b 1b c9 cf 3d
       -0.104263656 0.055182073 0.002316193 0.1014578
000030 23 1e ad 3d dc df 7a bd 06 d8 14 3e eb a2 63 3d
       0.08453014 -0.061248645 0.14535531 0.055575293
000040 88 2a 31 bd b2 79 a5 3c 11 21 a4 bd 8e 24 70 3c
       -0.04325345 0.02019963 -0.080141194 0.014657153
000050 af cb 08 3e 3b eb 57 3d db b3 bf 3d 0e f0 10 3e
       0.13358949 0.052714568 0.093604766 0.14154074
000060 9b fc e4 3b 34 7f 2b bd 4f 84 e5 3d 28 36 83 3d
       0.0069881207 -0.041869357 0.112068765 0.06406814
000070 27 07 b4 3c 3a c6 dd bd e6 bf c5 3d 58 af cd 3d
       0.021976067 -0.10828824 0.09655742 0.1004321
000080 db 65 9b 3d ab 76 04 3e 2a 2b ae bd c5 55 aa bd
       0.07587787 0.12935893 -0.08504327 -0.083171405
000090 ae 5f 23 3d e4 42 3a 3d 86 37 10 bc c5 3c 92 bd
       0.03988617 0.045473948 -0.0088023 -0.07140497
0000a0 2f 2a 31 3d 17 3c 71 3d 8c df 24 3d 50 79 e3 bc
       0.04325312 0.058895197 0.040252253 -0.027767807
0000b0 ad c8 c0 bd 04 b4 27 be cf 99 82 bd 08 13 fb bd
       -0.09413276 -0.16377264 -0.06376993 -0.12259489
0000c0 3b 77 c7 ba 39 2e d5 bd db 65 a0 3d 51 2d 0e 3e
       -0.0015218029 -0.10409207 0.078319274 0.13884474
0000d0 56 0a b9 3d 89 94 91 3d e6 41 6a bc 1e ef 6b bd
       0.090351745 0.07108409 -0.014297938 -0.057601087
0000e0 d6 f4 e0 3d cd db fc 3c 60 86 be 3d c7 83 11 3e
       0.10984199 0.030866528 0.09302974 0.14210425
0000f0 68 46 97 bd 11 79 f8 bd ab 84 80 3d da e5 92 bd
       -0.07386476 -0.121324666 0.062753044 -0.07172747
000100 9d 0c 13 3c 27 29 7c bd db 9d 9a bd ac d7 e0 3d
       0.008975175 -0.061562683 -0.0754964 0.10978636
000110 48 23 88 3d 7d a0 56 bc fd cb a1 bd 53 f3 d9 3d
       0.06647354 -0.013099787 -0.07900236 0.106421135
000120 bc 0d d7 bd dd 12 98 bd 6b 8b bb bd 97 47 5d bd
       -0.105006665 -0.07425473 -0.09157451 -0.05402335
000130 7a 4e d0 3c 15 30 d2 bd 57 d4 cc 3d e4 0d fb bd
       0.025428046 -0.10263077 0.10001438 -0.12258509
000140 c6 cf aa 3d 12 4e b1 3c a6 95 9f bd 80 cb 91 bd
       0.08340411 0.021643672 -0.07792215 -0.07118893
000150 07 1b 6e bc 42 32 91 bd ac 0e 03 be 10 97 97 3d
       -0.014532811 -0.07089664 -0.12798566 0.0740186
000160 e4 d7 f0 bd 23 eb 93 3d 75 90 01 be 79 73 c6 3c
       -0.11759928 0.07222583 -0.12652762 0.024224984
000170 b2 b3 be 3d 3c 19 c8 bb 27 ce e7 3d 80 43 b1 bd
       0.09311618 -0.006106524 0.11318617 -0.08655453
000180 b2 9c 6b 3d 29 07 fb bd 68 cd df 3d 14 ff 15 bd
       0.057522483 -0.12257225 0.1092785 -0.036620215
000190 13 15 92 3d af f6 ab bd e9 ae 90 3b 02 1d c4 3d
       0.07132926 -0.083966605 0.004415382 0.09575845
0001a0 7f 34 0f 3d e0 86 03 3e 51 97 ce bc bd 40 42 3c
       0.034962174 0.1284442 -0.025218638 0.011856255
0001b0 b2 4b 01 be e5 de 10 3d 91 d8 d8 bd 6c 9f a4 3a
       -0.12626532 0.03536882 -0.10588182 0.0012559718
0001c0 76 e7 78 ba 9b 75 59 3d c2 f3 00 3d dd c3 1d be
       -0.00094949396 0.053090673 0.031482466 -0.15406747
0001d0 07 ad 5b bd 07 68 b5 3d 72 b5 8c bd 32 a7 f2 3c
       -0.05363181 0.08857732 -0.068705454 0.02962074
0001e0 92 dd 61 3d 3c 8b 2a be 76 d1 c1 bc e7 5a 38 bd
       0.055142947 -0.16654676 -0.02365945 -0.045008566
0001f0 1c a4 b9 bd e5 d8 2c 3d bf 4f f9 3c 3c 12 41 bd
       -0.090645045 0.042199034 0.030433534 -0.04713653
000200 9c c0 97 bd a3 bc cf 3d 0b 53 f8 bd c9 a5 1c be
       -0.07409784 0.101434015 -0.12125214 -0.15297617
000210 cb b1 cb bd a6 f0 a9 3c f8 85 ee bc ea 0b 6b 3d
       -0.09946021 0.020744633 -0.029116616 0.05738441
000220 f9 bc b7 3d 52 de 28 3d 2f 30 91 3c 51 cb c1 3d
       0.089715905 0.041227646 0.017723171 0.09462608
000230 8e 9e b7 bd 81 46 0f 3e 1a 50 3c bd 47 34 af 3d
       -0.08965789 0.13991739 -0.04597483 0.08554893
000240 30 46 91 3d 33 ec 8d 3d f2 ed 36 bc 59 60 ac 3c
       0.07093465 0.06929817 -0.011165129 0.021042036
000250 66 62 d9 3d c5 6f 4d 3d 1d 68 f7 bd 75 3b 40 bd
       0.10614471 0.05015542 -0.12080405 -0.046931703
000260 d2 79 49 3d 73 9a b2 bd fe ed dc bd 51 d9 8d 3c
       0.049188443 -0.08720865 -0.10787581 0.017315539
000270 90 6a 75 3d 3d 39 27 3d 2f a1 e0 3d 9e 60 bb 3d
       0.05991608 0.04082607 0.10968243 0.09149288
000280 04 6e 86 3c dc b5 96 3d 11 e9 ec 3d e5 fc 3e bd
       0.016409881 0.07358906 0.115678914 -0.046627898
000290 40 a7 90 3c 4d c2 56 3c 7a ed 08 bc 48 22 96 bd
       0.017657876 0.013107848 -0.0083574 -0.073307574
0002a0 c0 19 5a bc 16 f6 e5 bd 23 8a fc 3c a3 ca ef bd
       -0.013311803 -0.11228578 0.030827587 -0.11708572
0002b0 ad 6c 97 3d 87 7e e4 bc 11 40 07 be c2 c3 28 3d
       0.07393775 -0.027892364 -0.13208033 0.041202314
0002c0 71 c8 ad bd 62 43 e5 3c 8f 84 84 bb 98 8c d5 bb
       -0.08485497 0.027986232 -0.0040441225 -0.006517004
0002d0 00 95 ad 3c 98 ab 75 bd 02 09 72 3c e4 e8 02 bc
       0.021189213 -0.059978098 0.014772655 -0.007990096
0002e0 0b 3b 85 3d 85 fd 2f 3d 84 ba 0e bd e9 c3 e8 bd
       0.06505402 0.042966384 -0.034845844 -0.11365492
0002f0 29 cb 66 3c 95 6c b3 bd 60 cd 21 3e 11 16 b2 3c
       0.014086523 -0.08760945 0.15801 0.021739038
000300 70 57 bd 3d c2 ee c4 3d ab 97 4e bd c4 db 10 3d
       0.09245193 0.09615852 -0.05043761 0.035365835
000310 7c c7 ea bd c4 5c 1a bd ee 67 f5 3d 1c 02 d5 3d
       -0.1146383 -0.037686124 0.11982714 0.10400793
000320 00 18 58 3c c0 80 a1 3d 88 82 29 3d 08 c6 6a 3d
       0.013189316 0.07885885 0.04138425 0.057317764
000330 ed d9 f1 3d 2d ab 92 bd d5 dc bb bd 61 fc 45 bc
       0.11809144 -0.071615554 -0.0917298 -0.012084098
000340 50 7b b8 bd 68 95 af 3c d5 8c 08 3d 8f 93 8d 3d
       -0.09007895 0.021433547 0.033337433 0.0691291
000350 41 33 21 be 59 1f 52 bd 81 92 12 be a9 f9 ce bd
       -0.15742208 -0.051299427 -0.143137 -0.10106213
000360 1b bb 5d 3d 27 c1 6d 3d a0 79 4c bd 6c ce 5c 3d
       0.054133516 0.058045533 -0.04992068 0.053907797
000370 d2 b0 9c bd 2e 1a 0d be a5 e0 15 be fb 50 0b bd
       -0.07650913 -0.13779518 -0.14636476 -0.034012776
000380 5c b6 be bd f2 6e 0f bb 09 15 7b bb ab 75 a8 3b
       -0.09312126 -0.0021886197 -0.0038312098 0.0051409802
000390 3f fc db bd ba 5c cc bd 60 ed a9 bd a0 b9 d1 3d
       -0.107414715 -0.09978624 -0.08297229 0.10240483
0003a0 62 ac ee bd 2c 0d db bb e8 d5 94 3d 9b 00 08 be
       -0.11653973 -0.00668492 0.07267362 -0.13281481
0003b0 be f0 9a 3d d9 15 59 3d ae 5c 28 be f3 0c 9e 3c
       0.07565449 0.05299935 -0.16441604 0.019293284
0003c0 24 8e e7 3d 3b 6f 1b 3d ad 0e 96 bd cc 4d ba bc
       0.11306408 0.037947875 -0.07327018 -0.022742175
0003d0 0b 1a bc 3d 0a 56 eb 3d e5 22 46 bc 34 54 20 3e
       0.09184655 0.1149102 -0.01209328 0.15657121
0003e0 a0 28 64 bd 48 03 e0 3b f0 bd 44 bd 3e e6 df bc
       -0.055702806 0.0068363287 -0.0480327 -0.027331468
0003f0 e4 c9 41 3e 4d c4 20 3d bb 83 00 be 68 ca 19 bd
       0.18924671 0.039249707 -0.12550251 -0.037546545

lstm.weight_hh_l0 f4 [256, 64]
000000 ca b7 da 3c 17 65 00 be 15 fe 1a 3c 78 13 c0 3a
       0.026698966 -0.12538563 0.009459992 0.001465424
000010 f3 24 0f 3e f8 1d e4 bd f0 10 3c be b3 ef 43 bd
       0.13978939 -0.111385286 -0.18365836 -0.047836017
000020 2a 49 82 bd 91 b1 9e 3d 5b f5 0c 3e f3 40 00 be
       -0.06361611 0.07748712 0.1376547 -0.12524776
000030 75 29 08 be 0d e8 f3 bd 13 c8 b7 3c 03 d3 ea bd
       -0.13297065 -0.119094945 0.02243427 -0.114660285
000040 07 0c 97 bd bf 99 a8 3d f3 5a 3a bd 4c 68 26 3d
       -0.07375341 0.0823245 -0.045496892 0.04062681
000050 b7 75 42 be 02 ff 6d bd 86 c3 21 3e da e5 97 bc
       -0.18990217 -0.058104523 0.15797243 -0.018542219
000060 1c 24 ca bc b2 fb f2 3d b1 9c b7 3d a2 61 64 bd
       -0.024675421 0.11864413 0.089654334 -0.055757172
000070 2e bb 1c 3e 77 12 0b bd 70 67 92 3d c5 6e 38 3e
       0.15305778 -0.033953156 0.071486354 0.18011005
000080 c3 51 6f 3c 67 e6 cc 3d 8d cf 79 3c 35 32 38 3d
       0.014606896 0.10004883 0.015247238 0.044969756
000090 a3 50 b9 bd 68 df ef bd 8e cb 96 3d 75 35 c7 bd
       -0.09048583 -0.11712533 0.07363044 -0.09726993
0000a0 dc 8a bd bd f5 ff b4 bd b3 76 a7 bd d3 ca fd 3d
       -0.09255001 -0.088378824 -0.08176937 0.12392201
0000b0 c0 89 b1 3d 2d b1 fc bd 27 49 3f 3d cf 1f 89 bd
       0.08668852 -0.12338481 0.046700623 -0.0669552
0000c0 ad 27 ad bd 63 e2 51 3e 0b 49 28 be f8 79 b2 bc
       -0.08454833 0.20496516 -0.16434114 -0.021786675
0000d0 19 41 55 bc 56 a1 b6 3c b8 86 ca bd 27 60 24 3c
       -0.013016009 0.022293728 -0.09888977 0.01003269
0000e0 fe 8a 1b 39 bf e6 01 be 5a 38 f7 3c 1a 4d fd bd
       0.0001483373 -0.12685679 0.030178238 -0.123682216
0000f0 fe 9a 7a 3d c2 26 3f 3d 64 84 7f 3d 55 61 2d bc
       0.06118297 0.04666782 0.062382117 -0.010582288
000100 2a 2a 19 bc 49 8e 42 bd d2 cd 33 bd 7a bf e7 bc
       -0.009348432 -0.047498975 -0.043897457 -0.028289545
000110 96 40 88 3c b4 ea 0f 3e 60 36 18 be 7d dc ed bc
       0.01663236 0.14054376 -0.14864492 -0.029035801
000120 a5 bc df bd 9c 0b ac bd d6 db 92 3c 64 22 95 bc
       -0.10924653 -0.08400652 0.017927092 -0.018204875
000130 5d 3e a4 bd e4 18 a2 bd a3 4b a3 3d d3 58 4a 3c
       -0.08019707 -0.07914904 0.07973411 0.012350279
000140 eb a6 1c be 89 e3 67 bb 92 30 82 3d 32 f8 aa bd
       -0.15298049 -0.0035383424 0.0635692 -0.08348121
000150 75 8b a5 3c a9 83 9a bd fb d3 3c bd 8c 9f d6 bc
       0.0202081 -0.075446434 -0.046100598 -0.026199125
000160 51 17 a9 bd 8b d5 18 bd ca f8 3a 3d 40 6e 74 bd
       -0.082564004 -0.037313025 0.04564742 -0.059675455
000170 82 11 8e bc 18 82 65 bd f5 52 5a bd 4a 39 39 bd
       -0.017342333 -0.05603227 -0.05330177 -0.04522065
000180 7e 93 2c 3d e2 09 b6 bd 24 3b 99 bd 29 45 92 3d
       0.042132847 -0.08888604 -0.07481983 0.071420975
000190 07 f0 ae 3c 78 17 d1 bd b6 37 86 3d 71 0b db bc
       0.021354688 -0.102095544 0.06553595 -0.026738854
0001a0 38 c9 ee bd 18 3e c2 bc 58 ab 96 bd 48 6d a7 3d
       -0.11659473 -0.02371125 -0.073569 0.081751406
0001b0 8c 68 ec bc 00 fa 99 bd ad c6 29 be e0 83 86 3d
       -0.028858446 -0.07518387 -0.16579695 0.06568122
0001c0 91 06 ff 3c 89 5f d3 3d 2a 95 c4 3d de 9a a6 3d
       0.03113106 0.10320956 0.09598763 0.08135007
0001d0 d2 c9 75 3d e7 e5 8f bd a3 fb 24 3d ba c9 1c 3d
       0.060006924 -0.07026272 0.040279042 0.03827832
0001e0 04 0e 0a be 4d 6f 30 ba ac 24 28 3d a2 2d 8d 3c
       -0.13481909 -0.00067304523 0.041050598 0.017233673
0001f0 e2 b9 2c bb 2e a0 28 bd 60 13 80 bd 1f ee 80 3d
       -0.0026355912 -0.041168384 -0.062536955 0.06295418
000200 6c 4c 63 3d f0 cc a2 3d c8 c1 d5 bd 41 fa 88 3d
       0.055492803 0.07949245 -0.104373515 0.06688357
000210 75 0c 99 3c c5 c3 9e 3c 48 35 c6 3d 9c e0 b1 3c
       0.018682698 0.01938046 0.09678131 0.021713547
000220 40 19 cf bd ca 35 e2 bd f8 fe c3 3d b1 5c 9a bd
       -0.10112238 -0.11045416 0.09570116 -0.07537211
000230 8d 6a a7 bc 0b 99 b5 bc e3 39 60 3d a9 3b d9 3d
       -0.02043655 -0.022167703 0.054742705 0.106070824
000240 df 0e 76 3d 12 83 e8 3c 30 47 e0 bc f9 57 01 3e
       0.060072776 0.028382812 -0.027377695 0.12631215
000250 37 8c c7 bd a9 a8 fb bd be f2 f0 3d 84 91 87 3d
       -0.09743541 -0.12288029 0.117650494 0.06619552
000260 31 a0 3f bd 5b 9b 85 3d ba 98 7f 3d 32 c9 e1 bd
       -0.04678363 0.06523772 0.06240151 -0.11024703
000270 e0 2e 9f bd 37 7a 40 bd 26 9b 12 bd f5 ca cd 3d
       -0.077726126 -0.046991553 -0.035792492 0.100484766
000280 00 2f f9 3d a7 10 c7 3d 2c b8 7e 3c 82 08 c5 3d
       0.12167168 0.09719973 0.01554684 0.09620763
000290 c7 8e e5 3b ef 2c c1 bd 1b c3 9e bd 61 f4 95 bc
       0.007005546 -0.094323985 -0.07752057 -0.018305006
0002a0 3f 7c a0 3c 5f 7a 1d 3d 4e 38 19 3e 59 4e b1 3d
       0.019590495 0.03844678 0.14962885 0.08657522
0002b0 a4 cd 64 bd 1b cf 09 3d 81 0b ec bd ae ed e9 bd
       -0.055860177 0.033644777 -0.11525632 -0.11422287
0002c0 93 be 63 bd de 96 fe 3c e5 28 62 3d ec 09 96 bd
       -0.055601668 0.031077798 0.05521478 -0.07326111
0002d0 f3 fe c1 3c e4 a2 c1 3d 40 20 02 bd 21 ef e3 bb
       0.02368114 0.09454897 -0.031769037 -0.0069559966
0002e0 f9 7f 91 3d d8 30 ec bd cd 8d 6c 3d 59 10 2e 3b
       0.07104487 -0.11532754 0.05775242 0.0026560037
0002f0 ab da a0 bd d5 be cb bd 45 d1 4d bc db d0 d8 3d
       -0.078542076 -0.09948508 -0.012562101 0.10586711
000300 65 31 0a 3c 23 32 34 bd 2f 18 f5 3b 41 8e c4 3d
       0.008434628 -0.043993127 0.0074796895 0.09597445
000310 3c 2c 6a 3d 52 d5 86 bd 8b ba cb bd ce b6 4e bd
       0.05717109 -0.06583656 -0.099476896 -0.050467305
000320 63 e3 97 3d 1e f9 59 3d 09 e0 bd bd a1 8e f0 bc
       0.074164174 0.053216092 -0.09271247 -0.029364886
000330 72 18 32 bd 66 ed b2 bd 4d 8b f8 3d 0b b8 c1 3d
       -0.043480344 -0.087366864 0.121359445 0.094589315
000340 d1 4d d6 bd 1d 83 a1 ba fe e7 1c be b1 c3 b9 3d
       -0.10464061 -0.00123224 -0.15322873 0.09070528
000350 f9 32 39 3d ed 77 16 be bc 18 39 3c 18 43 a1 3c
       0.045214627 -0.14694186 0.011297401 0.019685313
000360 08 83 fe bd cf 11 e4 3d 1e a2 fe bd 9f 5e c6 bd
       -0.12427336 0.11136209 -0.12433265 -0.09686016
000370 46 5e ed bd 8a 46 75 3d 3c 27 86 3d 7f bf ea bc
       -0.11590247 0.059881724 0.06550452 -0.028655766
000380 57 2b a6 bd 6a 00 a8 bb dd 2c b7 3d c2 df e9 3d
       -0.08113735 -0.0051270025 0.08944104 0.114196315
000390 4e 92 f4 3d 30 a4 90 3d e1 ff 26 bd 0d f5 ab bd
       0.11941968 0.07062566 -0.04077137 -0.08396349
0003a0 6c 56 ea 3d b0 db 0a 3d ea 4e b2 bc 1a d5 b2 3c
       0.11442265 0.033900917 -0.021766145 0.02183013
0003b0 48 1e ad 3d fc 0e d9 bd fa 27 4c 3d b6 85 fb 3d
       0.08453041 -0.10598561 0.049842812 0.12281363
0003c0 62 13 ee 3d fd a5 5a bc 14 98 36 bd de 5a bb bd
       0.11624791 -0.013345239 -0.044578627 -0.09148191
0003d0 c6 97 49 3d e3 5d 5f bd 6f ec 9b bd 4d 2d c8 bd
       0.049217008 -0.054532897 -0.076134555 -0.097742654
0003e0 8d 4e 47 bd ce b6 1c 3e 5f 32 8a bd 36 fe d0 bd
       -0.048658896 0.1530411 -0.06747889 -0.10204737
0003f0 85 02 cc 3d 9b ce e4 3d 73 5f 9f bd c5 7d 78 3d
       0.09961418 0.11172219 -0.07781877 0.06066682

lstm.bias_ih_l0 f4 [256]
000000 6e 1e eb 3d 6a 7b 9d bd 10 60 c8 3d 23 a3 8c 3d
       0.114804134 -0.07689555 0.097839475 0.06867053
000010 d1 c9 52 3d 95 70 a7 bd 03 32 e4 bc ef 75 9f bd
       0.051462 -0.0817577 -0.027855879 -0.07786166
000020 c4 95 38 bd 29 68 fe 3d 95 a4 83 3c 98 3d 86 3b
       -0.045064703 0.12422211 0.01606969 0.004096698
000030 f7 d7 33 bc 0a 4a 1d bd 28 24 06 bd 43 de a3 3d
       -0.010976783 -0.038400687 -0.032749325 0.080013774
000040 dd cd 5a 3d 1f cf 09 3e 2a b1 c5 3d dd c2 da 3d
       0.053418983 0.13457917 0.09652932 0.106816985
000050 e1 b0 3c 3d 49 19 a5 bd 67 26 72 3d 1a a2 fe bd
       0.046067122 -0.080614634 0.059118655 -0.12433262
000060 f5 92 35 3d 06 66 b5 3c 55 16 81 bd 1d 4b 7b bd
       0.044329602 0.022143375 -0.063030876 -0.06135093
000070 50 f1 6f 3c af 36 4a 3d 7a 56 a6 3c 41 06 ab bd
       0.014644936 0.049368557 0.020304907 -0.08350802
000080 01 c1 17 3d ac b2 d1 3a 62 ab 15 3e 30 df 80 bd
       0.037049297 0.0015998683 0.14616159 -0.0629257
000090 15 e1 d1 3d 8d d3 a9 3d ed f8 75 bd 7a 2f de 3d
       0.10248009 0.08292303 -0.060051847 0.10848899
0000a0 c4 92 82 3d 82 12 4e 3d 5d 33 f9 3d 08 39 98 3d
       0.063756496 0.05031062 0.12168 0.07432753
0000b0 0a 29 8e 3d 64 a7 2c bd a2 df 72 bd 2f b7 0c 3e
       0.06941421 -0.042151824 -0.059295304 0.13741754
0000c0 5e 83 81 3d 0a 59 92 3d a8 9e f7 3d e1 24 a6 3d
       0.063238844 0.07145889 0.12090808 0.08112503
0000d0 54 46 37 be 9f a5 9c bd 3c b0 b8 3d de 6d 13 bb
       -0.17897922 -0.07648777 0.09017989 -0.0022495906
0000e0 01 4f bf 3d e2 19 6f bc 44 67 24 bd ee f5 ba 3d
       0.09341241 -0.014593573 -0.040137544 0.091289386
0000f0 29 25 8b bc 3f 31 82 bc 68 69 b6 bd 0c bd 0a 3e
       -0.016985493 -0.015892623 -0.089068234 0.13548678
000100 2d 16 ff 3d d6 b3 f8 bc 15 48 d3 bd 22 92 38 bd
       0.124554016 -0.03035919 -0.10316483 -0.045061238
000110 55 8d 77 3c 42 f2 b7 3d 67 38 02 3d 7d dd c2 3d
       0.01510938 0.08981754 0.03179207 0.09514902
000120 f2 cf 9f bd 69 87 4c 3e 67 57 6c bd 22 3e e5 3d
       -0.07803334 0.1997353 -0.05770054 0.111934915
000130 0a 82 02 be 1f 4e b6 3d 9e 9d 98 bd 85 33 43 bd
       -0.12744918 0.08901619 -0.07451938 -0.047656555
000140 f0 09 dd 3d 84 c3 cd 3d 1f fd e2 bd ea b5 a5 ba
       0.10792911 0.10047057 -0.11083435 -0.0012642716
000150 51 57 2f 3d ed 35 98 3d 6f 88 af 3b b7 78 3f bd
       0.04280788 0.074321605 0.0053568403 -0.046745982
000160 db 13 85 bd d2 ae 07 3e d4 73 f0 bc 13 f3 16 3e
       -0.06497928 0.13250282 -0.029352106 0.14741163
000170 8d 8f 33 bd d1 12 a8 bc 0e 57 1b 3e 73 73 21 bd
       -0.043838073 -0.020516785 0.15169927 -0.03941674
000180 5d 72 ca 3d bf 3b 88 bd b5 2b 09 3e 6d 79 60 bd
       0.09885094 -0.06652021 0.13395579 -0.0548033
000190 3d 2a f6 3c 21 2b 44 3e 73 e2 cd 3c cf dd 72 3b
       0.030049438 0.19157077 0.025132393 0.0037058478
0001a0 84 7f 24 3e 36 4e 87 bd f0 d8 a3 bd 76 f0 ec 3d
       0.16064268 -0.066067144 -0.08000362 0.11569302
0001b0 9f dc 75 3d f7 f9 10 3e 2a 18 95 bc d7 00 f8 3d
       0.060024854 0.14157854 -0.018199999 0.12109535
0001c0 5f 46 d8 bc 97 e2 ae 3d a9 32 c2 bd cc 9c 00 3e
       -0.026400743 0.08539312 -0.09482319 0.12559813
0001d0 a5 52 c3 bd 96 7d 01 3d c5 9e 9a 3d b5 e3 12 3e
       -0.095372476 0.03161391 0.07549814 0.14344676
0001e0 cc 68 89 bc c7 98 72 3d b8 0a af bd b7 b4 39 3d
       -0.016773604 0.05922773 -0.08546966 0.04533836
0001f0 63 37 3a bd 09 44 a6 3d fd 42 83 bd e8 04 02 3e
       -0.045462977 0.081184454 -0.064092614 0.12697184
000200 19 bb 9a bc 99 35 29 bd c2 83 a1 bd 1a 2d de bd
       -0.018888043 -0.04131088 -0.07886459 -0.10848446
000210 d3 88 16 3c 16 e3 e0 bd 3f 1b 90 bd f4 b6 b2 bd
       0.009187895 -0.10980813 -0.07036447 -0.08726302
000220 49 92 91 3c 60 f4 de bc 36 00 30 bc cf 01 91 bd
       0.01776995 -0.027216136 -0.010742238 -0.07080423
000230 a3 87 08 3e 92 87 53 3d 00 01 9c 3d ec 4a de bd
       0.13332991 0.05164296 0.07617378 -0.10854134
000240 33 1f 7a 3d 00 52 e0 bd 26 d8 e6 3c c1 db d7 3d
       0.06106491 -0.1095314 0.02817924 0.105399616
000250 bf be 17 3c da 99 d9 bd 72 91 ec bd 4d 76 53 bd
       0.009261786 -0.10625048 -0.11551179 -0.051626492
000260 ca 7d 30 bd 86 81 6e bc 73 0f 7d bd c0 32 9f 3d
       -0.04308871 -0.014557248 -0.06178231 0.07773352
000270 3f 54 83 bd 21 e8 37 3d 10 85 d4 3d 7f 0c da 3c
       -0.06412553 0.04489911 0.10376942 0.026617287
000280 b8 36 f7 bc 0b 53 a5 bc fd 82 c8 bc fc 67 a2 bc
       -0.03017746 -0.0201812 -0.024476523 -0.019824974
000290 10 2c 50 3c fb 9e 2f bd 48 65 82 3d ca 5a e4 3d
       0.012705818 -0.042876225 0.06366974 0.11150129
0002a0 9b 91 ab bd c1 b9 38 bd 4c 50 34 bd 14 b8 a9 3d
       -0.083773814 -0.045099024 -0.04402189 0.08287063
0002b0 1a a8 db 39 2c 56 c3 bd 8f 84 3c 3d 49 79 9e 3d
       0.0004189618 -0.0953792 0.046024855 0.07737977
0002c0 fc 39 9e 3c 92 0d 16 3d 53 11 09 bd 27 d6 bd 3d
       0.019314758 0.036634035 -0.033463787 0.09269362
0002d0 7f b3 e3 3c 7e 04 cd bb 43 89 9b 3d 3c 3b a9 bd
       0.027795551 -0.006256639 0.0759454 -0.08263251
0002e0 f2 3f e8 3d 9f 99 d5 3d cf a6 c9 3d eb 46 a6 bd
       0.113403216 0.104296915 0.09846269 -0.08118995
0002f0 04 54 80 3b ad 18 67 3d f0 b3 c4 3c 63 ae 08 bc
       0.0039162654 0.056420017 0.024011582 -0.008342358
000300 f5 67 1c 3d e8 c1 bc bd 64 22 86 bd d3 2c 43 3d
       0.03818508 -0.09216672 -0.06549528 0.04765017
000310 07 ea e9 bc e4 b5 81 3c f0 13 9f bd e4 cd 57 3d
       -0.028553976 0.015833803 -0.07767475 0.052686587
000320 8a db 52 bd 3a 11 94 bc 17 3f 01 3e e3 bb a0 3c
       -0.0514789 -0.01807462 0.12621723 0.019620841
000330 0f 44 76 bd 9d 57 05 3d 35 54 47 bd 55 a0 72 bc
       -0.0601235 0.032554258 -0.04866429 -0.014808734
000340 22 f1 0c 3d 0d 30 f0 3d ef bd e4 bd 19 60 93 3d
       0.03440965 0.11727915 -0.111690395 0.071960635
000350 f0 44 3c 3d 09 71 a1 bd 2d e5 6b bd ec ba 9f 3d
       0.04596418 -0.07882888 -0.057591606 0.077993244
000360 0a 23 85 bd 22 f9 94 bc 9c 0b 8c 3d d1 9b 07 3e
       -0.06500824 -0.018185202 0.06838152 0.13243033
000370 09 07 c6 3d 62 0b 1d 3d d0 5a 51 3d 32 be 91 3b
       0.096693106 0.038340934 0.051111996 0.004447722
000380 61 1f 8d 3d da e4 c9 3d 22 b4 d8 bd 45 99 e7 bd
       0.06890751 0.09858103 -0.105812326 -0.11308531
000390 6d c9 f7 3d 36 5a f4 3d 9a 2f a0 bd b4 3d 8b bc
       0.12098966 0.11931269 -0.07821579 -0.016997196
0003a0 d4 6f e9 3d 15 2f e6 3c 04 f7 f2 3d ca b1 0b bd
       0.11398283 0.028098622 0.11863521 -0.0341051
0003b0 c9 f0 10 3e b5 1d 9e 3d 97 88 f5 3c 1d 87 4a bd
       0.14154352 0.0772051 0.029972358 -0.04944526
0003c0 38 91 6a 3d 7b ce 02 3e 00 08 68 bd 7a bc 85 bb
       0.057267398 0.12774079 -0.056648254 -0.004081306
0003d0 3b 01 a0 bb d2 ac a8 bc 62 7f 4d 3d 81 1e 85 3d
       -0.004882959 -0.02059022 0.05017031 0.06499959
0003e0 52 bb 3a 3c 2d 9e b9 3d 45 ad 93 3d 5f bc d2 bd
       0.0113972 0.09063373 0.07210783 -0.10289835
0003f0 e2 29 e0 3c 66 37 4d 3d 1e f9 92 bd 28 3b 90 3d
       0.027363721 0.05010166 -0.071764216 0.07042533

lstm.bias_hh_l0 f4 [256]
000000 5a ec bb 3d c0 7e c7 bd 1c 6b f2 bd fd a6 9f bd
       0.0917594 -0.097409725 -0.11836836 -0.07795522
000010 2f 05 bb bd 33 c6 01 3d cb d3 17 3c 00 3e 4f 3d
       -0.09131848 0.031683158 0.009266804 0.050596237
000020 20 cf 0b 3a 42 c9 32 bd ab 3c 40 3d 0c 0b 59 3d
       0.0005333293 -0.043648966 0.046932857 0.05298905
000030 4f 84 31 3c f0 dd 7b bd b5 2e 53 3d b8 39 a1 3c
       0.0108347675 -0.061490953 0.051558215 0.019680843
000040 b2 aa af ba 4f d7 f9 3c b2 fe e8 3c cd 62 e6 bd
       -0.0013402312 0.030498175 0.02844176 -0.112493135
000050 e1 78 d3 bd 2d af 6a 3d 63 27 55 bd 32 b6 c5 3c
       -0.1032579 0.057295967 -0.052039515 0.024134729
000060 d2 43 e6 3d 27 12 e5 bd 85 dc 61 3d 84 92 51 3b
       0.112434044 -0.11185103 0.055141944 0.00319782
000070 e9 b0 93 3d 62 a9 dd bd 05 5a e3 3d 5d ea 86 bd
       0.07211477 -0.10823323 0.11101154 -0.0658767
000080 e5 55 b8 3d ce f3 9b bd a2 cd f3 3d 17 89 b8 bd
       0.09000758 -0.076148614 0.11904456 -0.09010523
000090 0b db b1 bd 75 37 c0 3c 43 94 8a 3d ac b8 e1 bd
       -0.08684357 0.023463944 0.0676656 -0.110215515
0000a0 f1 1c 2a 3e aa 05 10 ba d8 39 9c ba a3 a7 4c 3d
       0.16612603 -0.0005494008 -0.0011919094 0.04996456
0000b0 0c fe 5d bd 2a 2e 76 bd fa f4 d1 bd 6e 9d aa bd
       -0.054197356 -0.06010262 -0.10251804 -0.083308086
0000c0 2c 2c 92 bb 62 40 1b ba f9 5d 0b bd 1c e6 06 bd
       -0.004460832 -0.00059223745 -0.034025166 -0.032934293
0000d0 35 ed 3d be 06 4e 3e 3d 66 a0 b1 bd 98 62 b3 3c
       -0.18547519 0.046461128 -0.08673172 0.0218976
0000e0 de 4f 0f bd 15 b2 73 3d 69 42 c8 3c 80 fe d0 bd
       -0.034988277 0.059496004 0.02444573 -0.10204792
0000f0 59 82 7f bd 31 5d 80 bd 52 ab 9b bd cd 39 40 bd
       -0.06238017 -0.06267775 -0.07601036 -0.046930123
000100 ca d6 99 3d 73 83 89 bc 37 0f d3 bd 69 ac 15 bd
       0.07511671 -0.016786313 -0.103056364 -0.036541376
000110 6d b7 eb 3d b6 21 9f 3d 4e 48 bd 3d 5f 05 8e 3d
       0.11509595 0.07770102 0.09242307 0.06934618
000120 30 ff cb 3d f9 9c bb 3c 9b a0 71 bd ec 9d 99 3d
       0.099607825 0.022901999 -0.058991056 0.07500824
000130 ab 02 5d 3c 14 28 01 3d 2e 83 e3 3d b6 65 a7 3d
       0.013489406 0.031532362 0.11109005 0.08173697
000140 bb 6e 6a 3c 1f a5 6c bd 79 92 cf bd c4 65 fb 3d
       0.014308627 -0.05777466 -0.10135359 0.1227527
000150 b3 22 4e 3d ec 41 41 bd a6 30 89 b9 eb 6c c1 bb
       0.05032606 -0.04718201 -0.00026166922 -0.0059028766
000160 e9 3a df bc fd 48 2e 3d e7 65 0f 3d 40 78 26 bd
       -0.02724977 0.042550076 0.03500929 -0.040642023
000170 21 83 2d bd a1 65 f3 3b 8a 9f 87 3d 76 b0 94 bd
       -0.042361382 0.0074278866 0.066222265 -0.0726022
000180 fc db 32 ba 16 bc 23 3d b4 fd fe 3d 5f 29 ef 3c
       -0.00068229414 0.039974295 0.12450734 0.029194532
000190 f9 a0 0a 3e 2f bb e2 3d ec 40 11 3e 4f 74 a9 3d
       0.13537969 0.11070859 0.14184922 0.08274137
0001a0 82 7e 1e 3e 34 92 9a bd 02 6a e4 3d d3 9f d4 3d
       0.15477946 -0.07547417 0.11153032 0.103820466
0001b0 8e 30 23 3e c5 74 bc 3b 30 aa 0b 3e 60 1a 5b bd
       0.15936491 0.0057512247 0.1363914 -0.05349195
0001c0 ae 27 1f 3d f7 6f 2c bc f8 61 20 3c 53 af ef 3d
       0.0388562 -0.010524741 0.009788983 0.11703362
0001d0 bd 0e 96 3d e5 fd e8 3d 52 22 44 3c b5 ed 3c bd
       0.0732703 0.113765515 0.011971073 -0.046125133
0001e0 d4 ec 55 bd 5b 8a 62 bd c5 cc 35 bd 12 69 d0 bd
       -0.05222781 -0.055307727 -0.044384737 -0.101762906
0001f0 33 e4 aa 3d 21 e2 d0 3d f1 fe 00 3e fb 15 0f 3e
       0.08344307 0.10199381 0.12597252 0.13973229
000200 23 00 a8 3d 2b 92 10 bd b6 59 06 bd d6 e1 40 3c
       0.08203151 -0.035295647 -0.0328004 0.0117725935
000210 c0 6c bb bd 6f 20 66 bd 84 10 b0 3d fc c1 bd 39
       -0.09151602 -0.056183275 0.085969 0.0003619342
000220 6f 95 ec 3b 01 d0 9a bd 88 a3 2d 3d ef 55 27 3c
       0.0072199623 -0.07559205 0.042392284 0.010213359
000230 dc 9b 8f bd 2f 2d ec bd b1 3c b3 bc 8e ff af 3d
       -0.0701215 -0.115320556 -0.021879526 0.08593665
000240 7d e7 05 be 65 c4 03 3c 9a 4b f2 bd 7a 60 6f 3c
       -0.13076587 0.00804243 -0.11830826 0.014610404
000250 df bf b5 bd 85 1b 9b bc 0e 62 92 3d 9b d4 78 bd
       -0.08874487 -0.01893402 0.07147609 -0.06074963
000260 26 12 b7 3c 7b c7 81 bd 7b 05 54 bd a7 3c c2 bc
       0.022347521 -0.06336876 -0.05176304 -0.023710562
000270 c2 4b 91 bd 84 7b 9e ba 5e 13 8e 3d 2b 13 cb bd
       -0.07094528 -0.0012091254 0.06937288 -0.099157654
000280 ec ba af bd 2d 96 01 be cf ff d5 3c b5 4b 26 bc
       -0.085805744 -0.12654944 0.026122956 -0.010149886
000290 07 fd a9 3d 18 66 a4 3c 5f f1 cf ba 74 a8 8a 3d
       0.08300214 0.020068213 -0.0015864781 0.06770411
0002a0 03 1d ee bd c4 3d c1 bc aa f7 b3 bd f0 3f 88 3d
       -0.11626627 -0.023589022 -0.087874725 0.0665282
0002b0 a2 18 a7 3d 26 8a 88 3d 01 35 48 bd 3b c2 03 3e
       0.08158995 0.06666975 -0.048878673 0.12867062
0002c0 79 92 9b bd 12 92 ed 3b 0a 5f 16 be 47 8b a6 3d
       -0.07596297 0.007250079 -0.14684692 0.08132034
0002d0 5b 96 08 ba db 9b 33 3d 69 46 bd bd 75 bb ea bc
       -0.0005210393 0.043849807 -0.09241945 -0.02865384
0002e0 68 ef ef bd 58 ca 04 3e c4 82 e2 bc c1 5a 0c bd
       -0.11715585 0.12967813 -0.027650245 -0.034266237
0002f0 c0 05 a4 3d 27 2a 7a bb 84 85 5a bc b2 e7 af bb
       0.08008909 -0.0038172097 -0.013337497 -0.0053681964
000300 c7 4c 08 3d 00 f9 f9 3c 26 fe d9 bd d6 16 89 3c
       0.033276346 0.03051424 -0.10644178 0.016734522
000310 b2 e3 07 3e 22 2e 4c 3d 5e 1b e6 bd 9c 15 fd 3c
       0.13270453 0.049848683 -0.112356886 0.030894093
000320 73 89 a8 bd 9f ca 49 3d 3f e1 65 bd 9c 7a cd bd
       -0.08229341 0.0492655 -0.056123015 -0.100331515
000330 73 e6 7b bd eb 16 11 3e c6 e5 18 3e 2f 6b 89 3d
       -0.06149907 0.14168899 0.14931402 0.06709897
000340 31 75 0e 3e 2a 82 1d 3d 1f e5 aa 3d 3f e4 2b bc
       0.13911892 0.038454212 0.08344483 -0.01049143
000350 76 e2 38 3c 5c 22 38 bd 9f f9 d8 3c 74 4f 9c bd
       0.011284461 -0.044954643 0.026486216 -0.07632342
000360 bd 78 47 bd fd 87 d2 3c 72 d9 37 bd 35 fb 01 bd
       -0.04869913 0.02569961 -0.044885106 -0.03173371
000370 32 cd 8c 3c 2e 70 c2 bd 47 bb c2 3c b4 1d 82 3b
       0.017187688 -0.09494053 0.023770941 0.003970826
000380 41 a0 ee bd 3a d5 99 3d 6e b3 35 3d 05 5d de 3d
       -0.1165166 0.07511373 0.04436057 0.10857586
000390 ed da cb 3d d4 1f ac 3d c1 94 0d 3e 1a 15 3f 3a
       0.09953866 0.08404508 0.13826276 0.0007289216
0003a0 02 bf 96 bc f2 ce e0 3d 91 b5 6f 3d 09 89 56 3d
       -0.018401626 0.10976972 0.058522765 0.05237678
0003b0 9c c3 d5 3d 8d 06 0b bd b2 1f 13 bd b0 e4 e2 bc
       0.104377 -0.033941794 -0.0359189 -0.027696937
0003c0 96 1a af bd fa 1a 1d bd 8a 72 ae 3c c6 dc 65 3d
       -0.08549993 -0.038355805 0.02129485 0.05611875
0003d0 69 47 26 3d b6 02 8b 3d 6e 94 3b bb fb 37 ba bd
       0.040595446 0.067876264 -0.0028622407 -0.09092709
0003e0 f0 fb 0e 3b 5b ab 15 bb 93 13 10 3c 9b 03 0f 3d
       0.0021817647 -0.0022837732 0.008793729 0.034915548
0003f0 26 b6 90 3c 9e 53 a2 bd 48 1a 7a 3d ff a3 dc bc
       0.01766498 -0.07926105 0.06106022 -0.026933668

fc.weight f4 [64, 64]
000000 82 54 fd bd 80 fd f6 bc 58 10 ea bc 18 27 e4 3d
       -0.12369634 -0.030150175 -0.028572246 0.11140269
000010 40 80 9f 3d 40 01 31 3c 42 3e bb 3d 3e 8a ee bd
       0.077881336 0.010803521 0.09142734 -0.11647461
000020 8c 2d 0f 3d ba 92 94 3d fc 1b 1b 3d 66 76 cb 3d
       0.034955546 0.07254548 0.037868485 0.09934692
000030 96 15 d8 bd 50 7a ba bd f0 84 64 3c 6c fc ad 3d
       -0.10550992 -0.091053605 0.01394771 0.08495411
000040 80 35 1f bc fc b3 0c bd ec 1b 6c 3d 9c 3a 4d bd
       -0.009717345 -0.034351334 0.057643816 -0.050104722
000050 14 ab 31 bd 8c 23 9e 3d a0 69 d0 3c e0 c2 74 3c
       -0.043376043 0.07721624 0.02544099 0.01493904
000060 f4 71 57 3d f4 64 3c 3d 7e 3a b2 3d c0 d1 84 bc
       0.05259891 0.045994714 0.08702563 -0.016213298
000070 38 aa 63 3d 6c d8 28 bd 94 3b 87 3d 82 6b 9d bd
       0.055582255 -0.04122202 0.066031605 -0.07686521
000080 e4 3f b0 bd 04 0c cd bd 80 0d 47 bb a2 27 99 bd
       -0.08605936 -0.100120574 -0.0030373037 -0.074782625
000090 fa 85 e9 bd 30 58 25 bc 54 a8 66 bd 5c bf a9 3d
       -0.11402507 -0.010091826 -0.056312874 0.08288452
0000a0 20 d2 8a bb 2c 73 36 3d 94 e4 e4 bd 0c 72 6d bd
       -0.0042364746 0.04454343 -0.1117641 -0.05797009
0000b0 0a 47 a2 3d 00 75 13 bb a8 ce 08 3d 5e db a1 bd
       0.07923706 -0.0022500157 0.033400208 -0.07903169
0000c0 8e 79 a8 3d c4 a8 20 3d 58 6f b1 bc be 41 94 bd
       0.0822631 0.039223447 -0.021659538 -0.07239102
0000d0 00 e9 6d 3a b0 01 cf bc c6 15 e2 bd a8 c5 a5 bd
       0.0009075552 -0.02526936 -0.11039309 -0.080943406
0000e0 12 2e f5 bd 44 a5 90 3d fc 0f 3b bd f2 ce cc 3d
       -0.11971678 0.07062772 -0.04566954 0.10000409
0000f0 08 3b aa bc 40 ef 85 3d 58 ea 51 bd cc 90 fb 3d
       -0.020780101 0.06539774 -0.05124888 0.12283477
000100 46 f5 02 bc 30 2e 64 3c 14 85 7c 3d b0 f3 98 bd
       -0.007993048 0.013927028 0.06165035 -0.07468355
000110 84 97 2f 3d 59 16 1a be 79 b8 63 bd bf 80 d4 3c
       0.042869106 -0.15047587 -0.05559585 0.025940297
000120 3a 90 52 3e b9 39 0c 3e 59 c3 11 be 21 90 58 3c
       0.2056283 0.13693894 -0.14234675 0.013217957
000130 fa 94 eb 3d 23 21 78 bc 67 ed c3 3d d1 94 90 3a
       0.115030244 -0.015144619 0.09566765 0.0011030679
000140 f0 5c ac 3d c7 ba 15 be 75 bc 4e 3d d1 e6 e9 3d
       0.08416164 -0.14622031 0.050472695 0.11420978
000150 59 3c 03 3e d2 bf 4e 3d 62 35 4b bd 7c b6 59 3d
       0.1281599 0.050475903 -0.049611457 0.053152546
000160 15 0d 2f 3e 6d c3 2e bc 4c 02 0f bc f9 6b 1b 3e
       0.17094834 -0.01066671 -0.008728575 0.15177907
000170 dc 2b 28 be c5 0e 44 3d a3 fe 57 3d e2 f7 48 3d
       -0.16422981 0.047865648 0.052733075 0.049064524
000180 d1 0b 54 bd 75 47 54 bd d0 f9 8b 3d 3a 17 e3 3d
       -0.05176908 -0.05182596 0.06834757 0.110884145
000190 a8 50 d3 3d ee 83 c9 bd 1b 53 e6 bd 0c c4 b0 bd
       0.10318118 -0.09839617 -0.1124632 -0.08631143
0001a0 5d 03 53 bd 83 2a 16 3e f7 6d 50 3d cb 9c c4 bd
       -0.05151688 0.14664654 0.05088612 -0.096002184
0001b0 63 14 f6 bd da 93 71 3d 4a 38 0c 3e 5c 95 17 3d
       -0.12015607 0.058978893 0.13693348 0.037007675
0001c0 1b 59 db 3c 7a 3b 92 3d 45 05 05 3d db c5 81 bd
       0.026775887 0.071402505 0.03247573 -0.06336566
0001d0 77 7c 9d 3a 6c 30 99 bd bb 3d 5d bd 3b 22 46 bd
       0.0012015243 -0.07479939 -0.05401395 -0.04837249
0001e0 bf 35 52 bd 19 05 9c 3d a1 64 fb bd 8f 62 2c 3d
       -0.051320788 0.0761816 -0.12275053 0.04208618
0001f0 94 b7 a0 bd 5f 7f a6 bc 4f 32 8d 3b 7d 65 5c 3d
       -0.07847515 -0.020324407 0.004308976 0.053807724
000200 f8 c7 41 3e da c4 01 3e 1d b5 5e 3e 45 1c a1 bd
       0.18923938 0.12672749 0.21748777 -0.0786672
000210 40 4c 64 3d 77 c0 ce bd 9d 71 56 3e 48 81 96 3e
       0.05573678 -0.100953035 0.20941778 0.2939551
000220 ec 87 d2 3c d7 d2 6c bd 52 79 fe bd 97 4f 73 3d
       0.025699578 -0.05781826 -0.12425484 0.059402075
000230 9c 72 67 3d 62 99 88 3d fa 6e 88 3d 26 7f 96 3c
       0.056505784 0.066698804 0.06661792 0.018371176
000240 0b b4 3d 3d 6b 3f 4b be e3 8e 23 3e e7 df 83 be
       0.04631428 -0.19848411 0.15972476 -0.2575676
000250 a9 1a 3a bd 70 3d 83 3d 79 42 14 be fc f1 05 bd
       -0.04543558 0.06408203 -0.14478482 -0.032701477
000260 e4 d4 3c 3d 3c 75 9d be ed 74 0d be c5 73 96 3b
       0.046101466 -0.30753505 -0.13814135 0.0045914375
000270 79 44 96 bd a1 92 24 3d 95 f6 ec bd 20 c7 87 bd
       -0.07337279 0.0401789 -0.11570469 -0.06629777
000280 3c b9 92 3d 92 9f e5 3d 6e cf b0 3c e4 5b 94 be
       0.07164237 0.11212076 0.021583285 -0.28976357
000290 ea 1d 8b 3d cd 0d ba 3c ce a4 bb bd 6b eb 30 3d
       0.06792815 0.022711659 -0.091622934 0.043193262
0002a0 70 46 ad 3d 44 d0 94 bd 2c 64 62 3d 80 8d 3a 3d
       0.084607005 -0.07266286 0.055271313 0.0455451
0002b0 77 72 0f be ff 2a 19 bb 36 b6 01 bd 73 38 6b 3d
       -0.14008509 -0.0023371575 -0.03166791 0.05742688
0002c0 be 82 af bc ce 14 92 bd a4 64 9e 3d 4a 83 44 bd
       -0.021424647 -0.071328744 0.077340394 -0.04797677
0002d0 71 6f 3f be 63 b0 a4 bd 8a fa 07 3e 38 a8 8d 3c
       -0.18694855 -0.080414556 0.13279167 0.017292127
0002e0 be a2 8b 3c 84 02 fe bc 9a 23 31 be 07 e9 25 3e
       0.017045375 -0.031007059 -0.17298737 0.16202174
0002f0 53 7d a6 3d 8a fa 5c 3e 42 c0 93 bd 0c b2 45 3c
       0.081293724 0.21579948 -0.07214405 0.012066375
000300 9a 63 f9 bc aa cf 91 3c ac be 40 bd ef 11 9c 3d
       -0.030443002 0.017799217 -0.04705684 0.07620608
000310 18 f2 e9 3d 40 f6 d0 3d 4e e1 66 3c b5 45 f4 3d
       0.11423129 0.102032185 0.014091803 0.11927358
000320 d1 b1 bc bd 7a ad 65 bd 22 63 de bd 42 ee e8 3d
       -0.09213603 -0.056073643 -0.10858752 0.11373569
000330 01 6f 3e bd 41 dc d8 bc 24 d4 63 3d 53 cb 93 bd
       -0.04649258 -0.026472213 0.055622235 -0.072165154
000340 4e 5e e9 bd 8e 04 9b bd 95 04 f8 3d 38 a3 f8 bd
       -0.1139494 -0.07569228 0.12110249 -0.121405065
000350 dc f4 f9 3c 69 33 47 bd 53 5c e9 3c bd ce ed 3d
       0.030512266 -0.048633013 0.028486406 0.11611698
000360 33 85 33 bd 71 dd d6 bc 16 71 90 bc bc 8d 4a 3d
       -0.0438282 -0.026228638 -0.017632049 0.049451575
000370 e7 35 b0 bd 81 4f 1b bd 7d 6c ed 3c 67 15 8a 3b
       -0.08604031 -0.037917618 0.028982395 0.004213977
000380 d8 8c e6 3d 0e 6c f7 3d 28 68 d0 3d ab 3c 04 be
       0.112573326 0.12081157 0.10176116 -0.12913768
000390 e9 44 c2 3d 26 72 e3 bd f2 d1 c7 3d e1 95 de bd
       0.094858 -0.111057565 0.09756841 -0.10868431
0003a0 ad 4a 94 3c be 2d 6a 3d d0 ff 91 3c 6a 88 88 bb
       0.018102014 0.05717253 0.017822176 -0.0041666524
0003b0 92 36 47 bd 7f e0 9f 3d 09 28 8b 3d 9b 7d 98 3c
       -0.048636027 0.07806491 0.067947455 0.01861458
0003c0 ee 38 dd 3d 17 ce e3 bd 61 f8 69 bd 7d b2 58 bd
       0.10801874 -0.11123293 -0.05712164 -0.052904595
0003d0 4e f0 ba 3a 08 b0 0c 3d a2 f9 d3 3d 8a 22 37 bb
       0.001426229 0.034347564 0.10350348 -0.002794417
0003e0 a0 f0 8b bd 5c b5 f4 bc d4 c7 33 bd 82 eb 03 bd
       -0.06833005 -0.029871635 -0.043891743 -0.03220702
0003f0 18 9e c8 3d 6e b9 ad bc a1 c4 e7 3d f1 3e 96 bc
       0.09795779 -0.021206584 0.11316801 -0.01834056

fc.bias f4 [64]
000000 ac f9 f0 bd 09 b7 15 3d 17 df 83 3d 38 70 b9 bd
       -0.11766371 0.03655151 0.064390354 -0.09054607
000010 00 83 17 bd 82 52 ee 3c 8c c8 09 bd ec 4a 2b 3d
       -0.036990166 0.029092077 -0.033638522 0.041819498
000020 c7 90 12 bd 42 73 33 bd 90 36 de bd 1e de 58 bd
       -0.0357826 -0.04381109 -0.10850251 -0.052946202
000030 35 67 2b bd fe fa f9 bd 28 41 fd bd 99 85 21 be
       -0.041846473 -0.12206076 -0.12365943 -0.1577362
000040 12 34 f6 bd 81 35 e8 bd ff 37 b1 bd b6 33 03 3c
       -0.120216504 -0.1133833 -0.086532585 0.008007934
000050 a1 30 c5 3d 29 9c 3f 3d 75 88 3b bc ae e0 4a 3d
       0.09628416 0.046779785 -0.011446108 0.049530677
000060 5a 68 fa bd cf 10 a9 bd 88 e0 f2 3d 60 f3 ac bd
       -0.12226935 -0.08255159 0.11859232 -0.084448576
000070 37 e2 e7 bc 2d ed a1 bd c9 b7 bc bd 8c 1a 86 bd
       -0.02830611 -0.07906566 -0.09214742 -0.06548032
000080 72 74 d9 3c a6 e7 22 bd 48 7b 97 bd f8 9a da 3d
       0.026544783 -0.0397717 -0.07396561 0.10674089
000090 30 7d f3 bd 08 df ee bd 36 24 b3 bc 32 c1 ea bd
       -0.11889112 -0.116636336 -0.021867853 -0.1146263
0000a0 9f aa 45 3c d2 44 4b bd 21 fc 4a bd 8c 12 a5 bd
       0.012064605 -0.04962618 -0.049556855 -0.08060178
0000b0 45 45 3a bd d1 12 83 bd 44 65 b1 3d 4d 0b 0a bc
       -0.045476217 -0.06400073 0.08661893 -0.008425546
0000c0 a3 cd db 3d 2c 37 6d 3d 8f 6f 0c be 2b 8e 63 3d
       0.107325815 0.057913944 -0.13714431 0.055555504
0000d0 dc 5c 02 be 00 99 0c bd eb 3b 2d bd 6f 6e 6f bd
       -0.12730736 -0.0343256 -0.04229347 -0.058454927
0000e0 fd 7c 09 be 9f c2 51 3d d8 d3 15 be 1d c0 52 3d
       -0.13426585 0.051210996 -0.14631593 0.051452745
0000f0 bf b3 0d be 1c 15 cb 3c b4 27 14 3e 4a 9e 33 bd
       -0.13838099 0.02479034 0.1446827 -0.043852128
